data_analysis/checkpoints/checkpoint.pth (torch, 12646 bytes, 6 tensors)

net.0.weight f4 [64, 3]
0.44009224 0.48670864 -0.12819172 0.5307249 -0.13143852 0.11221818 -0.29420754 0.35385004
0.522861 -0.42834347 0.5050391 0.11102732 0.42451695 0.079069406 0.27880636 -0.08484826
0.44542024 0.085708044 -0.271155 0.13353917 -0.28068832 -0.06991144 -0.2276453 0.38773075
-0.45757735 -0.2698343 -0.16681816 -0.34900978 0.015610786 -0.61031586 0.52264386 -0.46126348
0.4736861 0.09233898 -0.18287219 0.35970408 0.08629197 0.4770778 0.07217822 -0.18423304
0.15535331 -0.15677442 0.24054417 0.51647246 0.33443043 -0.24982075 0.33082378 0.10099224
0.28641608 -0.3689016 -0.58906317 -0.22088678 -0.44117564 0.47493488 0.15977977 0.23814088
0.18225071 -0.006333313 0.4737198 -0.38787705 0.03638949 -0.39409202 0.1780978 -0.19742556
0.17664704 -0.12033786 0.46766618 -0.35867047 -0.361056 -0.3519093 0.52553284 0.19650553
0.5503285 -0.478861 -0.5746017 -0.45185837 -0.38808566 0.23436126 0.20532052 0.48124588
-0.29545274 -0.39209747 0.306825 -0.23328646 0.35255146 -0.13903318 0.32817376 -0.44677922
-0.28493994 0.18236022 0.12241709 -0.14667088 0.3447983 0.38617623 -0.4250762 -0.31499213
0.52612126 -0.19785172 -0.20799069 -0.561506 -0.31853732 0.15541679 -0.074827634 -0.42607832
0.0064301626 -0.39512885 -0.5229639 -0.34912097 -0.5037102 -0.36751357 0.5770685 0.1098726
0.17824411 -0.5380844 -0.38070923 -0.19325231 0.08936569 -0.50712407 -0.28397208 -0.37926403
-0.00041575122 -0.23721349 -0.06106711 -0.39434677 -0.428949 -0.36807188 -0.19603507 -0.437397
0.5004791 -0.11715306 0.49701744 0.17991687 -0.49081197 0.40264368 -0.15607402 -0.22027339
-0.47591862 -0.57033473 0.1652296 -0.12522155 0.2252015 -0.47397688 0.42481276 -0.42736852
-0.09551542 0.11645827 0.2955523 0.46097246 0.52291495 -0.460434 0.14930369 -0.24216951
-0.057124935 -0.42985925 0.5244422 -0.42446733 0.30971155 0.19737409 0.1824963 -0.31994957
0.53136414 0.13358839 0.07409727 -0.50715554 0.24358705 -0.08852043 -0.25397614 0.50374156
0.12990274 -0.31599241 -0.2883543 -0.02179981 0.35553962 -0.11476886 -0.3305177 -0.2183997
-0.45313329 0.21036884 0.44731385 -0.5429945 0.13348874 0.29799032 0.105066195 -0.20778953
0.30458152 0.30624145 0.21206228 -0.11870624 -0.17172432 0.062001344 -0.102078855 -0.17216696
00000000: c553 e13e e031 f93e b144 03be 96dd 073f
00000010: d297 06be a5d2 e53d 5fa2 96be d52b b53e
00000020: 38da 053f d64f dbbe 3e4a 013f 4b62 e33d
00000030: 495a d93e 24ef a13d b5bf 8e3e edc4 adbd
00000040: 1f0e e43e b387 af3d d4d4 8abe 7ebe 083e
00000050: 61b6 8fbe bb2d 8fbd d91b 69be a584 c63e
00000060: 9447 eabe b927 8abe 61d2 2abe 69b1 b2be
00000070: 62c4 7f3c a93d 1cbf fdcb 053f ba2a ecbe
00000080: fc86 f23e 381c bd3d d942 3bbe 222b b83e
00000090: d8b9 b03d 8b43 f43e 2dd2 933d 96a7 3cbe
000000a0: f014 1f3e 7989 20be 3651 763e 8a37 043f
000000b0: 773a ab3e 03d1 7fbe bc61 a93e 05d5 ce3d
000000c0: 21a5 923e ace0 bcbe d8cc 16bf 2530 62be
000000d0: c6e1 e1be aa2a f33e 4f9d 233e 34db 733e
000000e0: ee9f 3a3e ae87 cfbb 678b f23e d297 c6be
000000f0: 250d 153d 6ec6 c9be 455f 363e ed29 4abe
00000100: f6e2 343e b273 f6bd f171 ef3e a8a3 b7be
00000110: 55dc b8be 752d b4be 5289 063f bf38 493e
00000120: 54e2 0c3f 452d f5be 1919 13bf fb59 e7be
00000130: 2ab3 c6be 66fc 6f3e 8b3f 523e dc65 f63e
00000140: 9545 97be 00c1 c8be 2b18 9d3e a5e2 6ebe
00000150: a081 b43e b75e 0ebe 6406 a83e 3fc0 e4be
00000160: a6e3 91be a3bc 3a3e d0b5 fa3d e430 16be
00000170: 6789 b03e e4b8 c53e 96a3 d9be a646 a1be
00000180: e2af 063f a499 4abe 83fb 54be dbbe 0fbf
00000190: 5317 a3be 9425 1f3e 3b3f 99bd f026 dabe
000001a0: 1db4 d23b 544e cabe f6e0 05bf fcbf b2be
000001b0: 27f3 00bf bd2a bcbe c3ba 133f e304 e13d
000001c0: a085 363e e6bf 09bf 52ec c2be efe3 45be
000001d0: 5c05 b73d e2d2 01bf ca64 91be e52e c2be
000001e0: 2ff9 d9b9 18e8 72be 8221 7abd d2e7 c9be
000001f0: 349f dbbe eb73 bcbe 6bbd 48be 80f2 dfbe
00000200: 661f 003f f2ed efbd 1279 fe3e 213c 383e
00000210: b54b fbbe 5027 ce3e ded1 1fbe 598f 61be
00000220: 9bab f3be 7501 12bf f331 293e 143a 00be
00000230: 399b 663e 19ad f2be 0f81 d93e 0cd0 dabe
00000240: 979d c3bd ac81 ee3d a252 973e 9504 ec3e
00000250: c1dd 053f 01be ebbe 11e3 183e 49fb 77be
00000260: d6fb 69bd 8316 dcbe d841 063f c853 d9be
00000270: 8392 9e3e 6f1c 4a3e 4fe0 3a3e 6ed0 a3be
00000280: 7b07 083f 65cb 083e 4fc0 973d f2d4 01bf
00000290: e26e 793e 334a b5bd 2909 82be 35f5 003f
000002a0: 3905 053e c2c9 a1be 2da3 93be 8495 b2bc
000002b0: 4a09 b63e f00b ebbd 9e39 a9be 2ca4 5fbe
000002c0: 1601 e8be ee6a 573e 5206 e53e b001 0bbf
000002d0: 46b1 083e 3092 983e f22c d73d c7c6 54be
000002e0: 1cf2 9b3e aecb 9c3e db26 593e 421c f3bd
000002f0: 80d8 2fbe 1ff5 7d3d b80e d1bd 894c 30be

net.0.bias f4 [64]
0.3837772 0.48588976 -0.027365848 -0.12153174 0.0070328186 -0.03223721 0.14830975 0.16940564
-0.5213307 -0.19049959 0.5015657 0.23486978 -0.007557423 -0.34707722 -0.35126677 -0.5194973
-0.17754006 0.18903176 0.363684 0.2733362 -0.51030225 -0.3479023 -0.08398863 0.57926065
0.082305774 -0.14983201 0.23645812 -0.22100551 -0.37213197 0.41879144 -0.26188162 -0.11305785
-0.5732737 0.3908324 0.43640792 0.20994355 -0.40374017 -0.5699957 -0.4676675 0.42788905
0.26491925 0.48144367 0.31005323 0.14982373 0.0002714613 -0.4416586 -0.49469572 -0.53924847
0.2218182 -0.28575823 -0.11803709 -0.33479968 -0.10993772 -0.39674583 -0.37854865 0.21035291
-0.1737058 0.36555073 -0.17233387 -0.42249316 -0.10071491 -0.27594078 -0.16618924 -0.54957294
00000000: 727e c43e 8bc6 f83e 582e e0bc a2e5 f8bd
00000010: 8f73 e63b 2a0b 04bd 83de 173e ac78 2d3e
00000020: ee75 05bf 5312 43be 9c66 003f b481 703e
00000030: 42a4 f7bb 1bb4 b1be 3dd9 b3be c6fd 04bf
00000040: 10cd 35be 8b91 413e ca34 ba3e b9f2 8b3e
00000050: 2ba3 02bf 4020 b2be 3b02 acbd 6d4a 143f
00000060: ee8f a83d 906d 19be 1422 723e 454f 62be
00000070: 1588 bebe d56b d63e 5915 86be e08a e7bd
00000080: 11c2 12bf 2f1b c83e dc70 df3e 71fb 563e
00000090: 08b7 cebe 3deb 11bf 1d72 efbe 4614 db3e
000000a0: 7fa3 873e c97f f63e 4cbf 9e3e 646b 193e
000000b0: eb52 8e39 1321 e2be c248 fdbe 300c 0abf
000000c0: 4f24 633e e74e 92be 6ebd f1bd dd6a abbe
000000d0: 0727 e1bd 4522 cbbe 21d1 c1be c166 573e
000000e0: efdf 31be 7729 bb3e 4a78 30be 0651 d8be
000000f0: 9e43 cebd 1c48 8dbe 832d 2abe d0b0 0cbf

net.2.weight f4 [32, 64]
0.060505103 -0.09676121 0.06057583 0.05533633 0.08355068 -0.09748947 0.090076834 -0.059935078
0.04638638 0.118263215 -0.026886826 -0.004127569 -0.03089729 -0.10438811 0.057883102 -0.12426831
0.075908676 0.09334785 0.11207705 -0.03208722 -0.10272154 0.028073741 0.06506329 -0.12858959
-0.033842158 -0.0749303 -0.016106933 -0.061717518 -0.052248538 -0.039639063 -0.11889626 0.099659815
0.102695785 -0.019502003 -0.015392735 -0.0490156 -0.112889744 -0.12147272 0.046457313 -0.06699875
-0.08166602 -0.008332401 -0.042110644 -0.043158364 0.0033162993 -0.024498077 -0.043041576 -0.059943102
-0.10390014 0.101228595 -0.050760385 0.032826044 -0.04653085 0.009264276 0.11641445 0.056401543
-0.10858836 0.046236902 0.11979761 0.032749888 0.08235346 0.122279875 -0.020250624 0.025886387
-0.08687939 -0.025759637 0.09257297 0.06408073 -0.07909863 -0.100235626 -0.08542046 -0.12335971
-0.09645487 -0.030912176 0.084359646 0.02092278 -0.09507568 -0.10027799 0.06218441 -0.09298016
-0.015390933 0.059963256 -0.05785151 -0.013629988 -0.01088056 -0.029572919 -0.06337902 -0.111429796
-0.101044625 -0.06693271 0.120729715 -0.060376838 -0.083941 0.030299276 0.03445129 0.06848872
0.09501505 0.06960927 -0.12393762 0.0110860765 0.07571913 -0.011553183 -0.0736599 0.11916748
-0.04675348 -0.071168065 -0.11269438 0.0055835396 0.05539164 0.027670354 0.024718717 -0.09479843
-0.116735905 0.0022011697 0.113979265 0.07211517 -0.07277928 -0.016226068 -0.09214795 -0.060302928
0.022637293 0.06806731 0.10354616 -0.11476326 0.0835769 -0.08816151 0.046808407 0.10578066
0.0017515648 0.11466094 -0.10693644 -0.047896992 0.07293904 -0.027825845 -0.02803001 -0.05258103
0.08431121 0.058360618 0.041004177 -0.07003154 -0.10217501 0.01357028 0.03601012 -0.057713985
-0.03602951 0.082290344 0.010145156 0.004461573 -0.030817468 -0.11316067 -0.11725274 -0.061247256
-0.06445059 0.036207657 -0.036716178 -0.049671892 0.11901382 0.038698424 0.08898662 -0.060721625
-0.051061306 0.040354285 -0.08711008 -0.08809039 -0.006829807 -0.04569402 -0.094115816 0.06717887
0.09856012 0.013101904 -0.02413514 -0.11630201 -0.047067903 0.028473439 0.058865573 -0.015981585
-0.049555395 0.06898265 -0.099573135 0.07859296 -0.0487566 0.0016867017 -0.02489416 0.014704913
-0.0386456 0.08994295 -0.006685233 0.09708181 0.11970251 -0.06125335 -0.09114481 0.10028775
0.09330404 -0.096091196 -0.009731372 -0.12350265 -0.10465123 0.024051657 0.038791295 0.026985819
-0.03070861 0.12568441 0.017351927 -0.07483838 -0.007166576 0.029956913 0.043771077 -0.08839201
0.05986285 -0.06094608 -0.10694487 -0.06740931 0.12053655 0.106799886 0.119397484 0.07193499
0.10908516 -0.013284301 -0.07136259 0.06289396 -0.06539431 -0.07550842 -0.039922412 0.034865297
0.06401978 -0.038242828 -0.061221395 0.038169112 -0.07326506 -0.0808955 0.0654404 -0.0010680424
0.121830024 0.1440255 0.04090302 0.042740673 0.0294418 0.018660778 -0.009099973 0.001722306
0.0462976 0.1142705 -0.029395698 -0.052754026 -0.031228483 -0.060469046 0.021376511 0.0937356
0.1062252 0.056423493 -0.079508245 -0.067457244 -0.027537562 -0.023063967 0.01181687 -0.11478727
00000000: 33d4 773d be2a c6bd 5d1e 783d 59a8 623d
00000010: 9e1c ab3d 8fa8 c7bd 347a b83d 7c7e 75bd
00000020: a5ff 3d3d fc33 f23d c341 dcbc 8f40 87bb
00000030: 501c fdbc 6fc9 d5bd d516 6d3d 6280 febd
00000040: 0276 9b3d 282d bf3d a788 e53d e46d 03bd
00000050: ac5f d2bd e7fa e53c e73f 853d fdac 03be
00000060: 139e 0abd 0f75 99bd b0f2 83bc 82cb 7cbd
00000070: 9002 56bd 925c 22bd e27f f3bd 721a cc3d
00000080: 2b52 d23d aac2 9fbc cf31 7cbc 95c4 48bd
00000090: bd32 e7bd b0c6 f8bd 064a 3e3d a436 89bd
000000a0: 8440 a7bd 9f84 08bc 367c 2cbd d3c6 30bd
000000b0: 4556 593b 31b0 c8bc 5d4c 30bd e686 75bd
000000c0: 99c9 d4bd f050 cf3d 1fea 4fbd 9a74 063d
000000d0: 2297 3ebd 31c9 173c b36a ee3d 4e05 673d
000000e0: 9363 debd e862 3d3d 7358 f53d bf24 063d
000000f0: eea8 a83d df6d fa3d a3e4 a5bc b00f d43c
00000100: d2ed b1bd e005 d3bc e696 bd3d c23c 833d
00000110: 76fe a1bd 5648 cdbd ecf0 aebd 04a4 fcbd
00000120: 228a c5bd 883b fdbc c0c4 ac3d 4066 ab3c
00000130: 0ab7 c2bd 8c5e cdbd 14b5 7e3d 626c bebd
00000140: 402a 7cbc 089c 753d b4f5 6cbd 5050 5fbc
00000150: 6044 32bc e842 f2bc dccc 81bd 4e35 e4bd
00000160: 7cf0 cebd 0414 89bd 2441 f73d b44d 77bd
00000170: 42e9 abbd 3036 f83c cc1c 0d3d d043 8c3d
00000180: 4097 c23d 4e8f 8e3d 02d3 fdbd 60a2 353c
00000190: a212 9b3d 9049 3dbc 00db 96bd 140e f43d
000001a0: 9480 3fbd 90c0 91bd 50cc e6bd 20f6 b63b
000001b0: 58e2 623d f0ac e23c e87e ca3c ae25 c2bd
000001c0: 3c13 efbd 8041 103b f66d e93d 1eb1 933d
000001d0: 4e0d 95bd 88ec 84bc 10b8 bcbd 3400 77bd
000001e0: d871 b93c e066 8b3d 0210 d43d 0009 ebbd
000001f0: 5e2a ab3d 068e b4bd 2cba 3f3d 88a3 d83d
00000200: c394 e53a 5bd3 ea3d 7e01 dbbd a32f 44bd
00000210: 1061 953d 07f3 e3bc 319f e5bc 355f 57bd
00000220: 5bab ac3d 8b0b 6f3d fff3 273d b26c 8fbd
00000230: 2241 d1bd e155 5e3c 597f 133d 8065 6cbd
00000240: ae93 13bd d787 a83d de37 263c 6332 923b
00000250: ea74 fcbc c8c0 e7bd 3422 f0bd 67de 7abd
00000260: acfe 83bd 7b4e 143d b463 16bd c174 4bbd
00000270: 85bd f33d 3d82 1e3d 9e3e b63d 3db7 78bd
00000280: a925 51bd 894a 253d c566 b2bd bc68 b4bd
00000290: 93cc dfbb a729 3bbd cbbf c0bd 1395 893d
000002a0: e3d9 c93d 5ea9 563c 0fb7 c5bc c02f eebd
000002b0: 46ca 40bd 2141 e93c 071d 713d d0eb 82bc
000002c0: 99fa 4abd c746 8d3d 00ed cbbd 59f5 a03d
000002d0: 00b5 47bd 5114 dd3a d6ee cbbc e0ec 703c
000002e0: d94a 1ebd 0234 b83d cd0f dbbb d4d2 c63d
000002f0: 9726 f53d cbe4 7abd 21aa babd aa63 cd3d
00000300: 3016 bf3d 76cb c4bd 5570 1fbc f5ee fcbd
00000310: 6253 d6bd fb07 c53c 9fe3 1e3d 5d11 dd3c
00000320: 9f90 fbbc 6ab3 003e a125 8e3c dd44 99bd
00000330: 99d5 eabb 3368 f53c 4d49 333d df06 b5bd
00000340: bf32 753d 99a2 79bd e905 dbbd e40d 8abd
00000350: dedb f63d e6b9 da3d ab86 f43d a752 933d
00000360: 0a68 df3d 66a6 59bc 8d26 92bd 8cce 803d
00000370: 74ed 85bd 29a4 9abd af85 23bd eace 0e3d
00000380: cd1c 833d 83a4 1cbd 49c3 7abd 3757 1c3d
00000390: fe0b 96bd 8aac a5bd 9e05 863d 8efd 8bba
000003a0: 0582 f93d 6c7b 133e ed89 273d d810 2f3d
000003b0: ee2f f13c 7dde 983c 0e18 15bc 00bf e13a
000003c0: 8da2 3d3d a706 ea3d 3fcf f0bc 9b14 58bd
000003d0: e0d2 ffbc 64ae 77bd cb1d af3c 73f8 bf3d
000003e0: 998c d93d 521c 673d 38d5 a2bd 0627 8abd
000003f0: 7496 e1bc a5f0 bcbc 8c9b 413c 9715 ebbd

net.2.bias f4 [32]
0.005086623 -0.09921759 -0.0992327 -0.093346655 -0.028762585 0.09809707 0.10319975 0.014387557
-0.012135042 0.04593492 0.017163822 -0.10262375 -0.06604777 -0.08453882 -0.010773805 -0.12295046
-0.024276638 -0.045692988 0.20340523 0.08601062 0.06083123 -0.001885351 -0.06933408 0.011850571
-0.07833497 -0.053313177 0.007498409 -0.02936934 -0.11864289 0.10328461 0.08285708 -0.073419064
00000000: b0ad a63b 9832 cbbd 843a cbbd 882c bfbd
00000010: 839f ebbc 1ee7 c83d 645a d33d cab9 6b3c
00000020: 0ed2 46bc 4126 3c3d 259b 8c3c 672c d2bd
00000030: 0e44 87bd b022 adbd 9d84 30bc 73cd fbbd
00000040: cddf c6bc 9228 3bbd 7649 503e 5626 b03d
00000050: 2b2a 793d e21d f7ba 07ff 8dbd e628 423c
00000060: 166e a0bd eb5e 5abd 37b5 f53b f897 f0bc
00000070: 0bfb f2bd e286 d33d f9b0 a93d bc5c 96bd

net.4.weight f4 [2, 32]
0.0397737 -0.020501554 -0.004983978 0.07977519 0.26992977 0.01989933 -0.23471153 -0.10709528
0.11779852 0.063481554 0.041634023 -0.025724275 -0.11029296 -0.065271795 -0.12077554 -0.061807573
0.028262446 0.13511682 -0.13148738 0.1012861 0.14402217 0.123193644 0.010919923 0.08286714
0.022176975 -0.15168057 0.085567184 -0.03863966 0.15092333 -0.051655963 0.061654225 0.1548784
-0.08316387 0.15364964 0.15073884 -0.07622752 -0.25860307 -0.053258084 0.07559429 0.046426143
-0.19171312 0.024443697 -0.11171805 -0.04286847 -0.04979035 -0.034794435 -0.13664863 -0.0029469063
0.0376695 0.11608643 0.25219676 -0.22235473 0.044459064 -0.1459459 -0.124882326 -0.036331847
-0.11440845 -0.1522053 -0.24395603 -0.11832519 0.15386578 0.3098092 -0.09655998 -0.115195096
00000000: bfe9 223d e0f2 a7bc a350 a3bb 2d61 a33d
00000010: 3c34 8a3e eb03 a33c 3858 70be c554 dbbd
00000020: 5a40 f13d 9e02 823d 7088 2a3d b7bb d2bc
00000030: 47e1 e1bd 38ad 85bd 2b59 f7bd f029 7dbd
00000040: a586 e73c 105c 0a3e a1a4 06be 166f cf3d
00000050: 8c7a 133e f34c fc3d 7ae9 323c 3fb6 a93d
00000060: 7dac b53c 2752 1bbe d93d af3d 9f44 1ebd
00000070: a58b 1a3e 3495 53bd 2489 7c3d 7198 1e3e
00000080: d251 aabd 5556 1d3e 485b 1a3e 2d1d 9cbd
00000090: 9f67 84be 2625 5abd 2ed1 9a3d 5729 3e3d
000000a0: 7250 44be 263e c83c 6fcc e4bd d996 2fbd
000000b0: f7f0 4bbd 9c84 0ebd 9eed 0bbe e220 41bb
000000c0: 554b 1a3d b9be ed3d ef1f 813e f5b0 63be
000000d0: b51a 363d d872 15be 4ec2 ffbd b4d0 14bd
000000e0: fa4e eabd b5db 1bbe 9ccf 79be 7a54 f2bd
000000f0: fe8e 1d3e 509f 9e3e 3dc1 c5bd 68eb ebbd

net.4.bias f4 [2]
-0.45933938 0.21896465
00000000: 882e ebbe 4538 603e
